…
temp: 0.3
is_hard: False
skip_first_edge_type: False
pred_steps: 10
is_burn_in: True
final_pred_steps: 30
is_dynamic_graph: False
show_conf_band: False

Training parameters set to: 
lr=0.001, 
optimizer=adam, 
loss_type_encoder=kld, 
loss_type_decoder=mse, 
prior=None, 
add_const_kld=True

---------------------------------------------------------------------------

NRI Model Initialized with the following configurations:
----- NRI Model Summary -----
-- Encoder Summary
Encoder(
  (emb_fn_dict): ModuleDict(
    (1/node_emd1): MLP(
      (layers): ModuleList(
        (0): Linear(in_features=300, out_features=256, bias=True)
        (1): ELU(alpha=1.0)
        (2): Dropout(p=0.0, inplace=False)
        (3): Linear(in_features=256, out_features=256, bias=True)
        (4): ELU(alpha=1.0)
      )
    )
    (1/edge_emd1@): MLP(
      (layers): ModuleList(
        (0): Linear(in_features=512, out_features=256, bias=True)
        (1): ELU(alpha=1.0)
        (2): Dropout(p=0.0, inplace=False)
        (3): Linear(in_features=256, out_features=256, bias=True)
        (4): ELU(alpha=1.0)
      )
    )
    (2/node_emd1): MLP(
      (layers): ModuleList(
        (0): Linear(in_features=256, out_features=256, bias=True)
        (1): ELU(alpha=1.0)
        (2): Dropout(p=0.0, inplace=False)
        (3): Linear(in_features=256, out_features=256, bias=True)
        (4): ELU(alpha=1.0)
      )
    )
    (2/edge_emd1): MLP(
      (layers): ModuleList(
        (0): Linear(in_features=768, out_features=256, bias=True)
        (1): ELU(alpha=1.0)
        (2): Dropout(p=0.0, inplace=False)
        (3): Linear(in_features=256, out_features=256, bias=True)
        (4): ELU(alpha=1.0)
      )
    )
  )
  (attention_layer_dict): ModuleDict()
  (output_layer): Linear(in_features=256, out_features=2, bias=True)
)
-- Decoder Summary
Decoder(
  (edge_mlp_fn): ModuleList(
    (0-1): 2 x MLP(
      (layers): ModuleList(
        (0): Linear(in_features=512, out_features=256, bias=True)
        (1): Tanh()
        (2): Dropout(p=0, inplace=False)
        (3): Linear(in_features=256, out_features=256, bias=True)
        (4): Tanh()
      )
    )
  )
  (recurrent_emb_fn): GRU(
    (input_u): Linear(in_features=3, out_features=256, bias=True)
    (hidden_u): Linear(in_features=256, out_features=256, bias=True)
    (input_r): Linear(in_features=3, out_features=256, bias=True)
    (hidden_r): Linear(in_features=256, out_features=256, bias=True)
    (input_h): Linear(in_features=3, out_features=256, bias=True)
    (hidden_h): Linear(in_features=256, out_features=256, bias=True)
  )
  (mean_mlp): MLP(
    (layers): ModuleList(
      (0): Linear(in_features=256, out_features=256, bias=True)
      (1): ReLU()
      (2): Dropout(p=0, inplace=False)
      (3): Linear(in_features=256, out_features=256, bias=True)
      (4): ReLU()
    )
  )
  (var_mlp): MLP(
    (layers): ModuleList(
      (0): Linear(in_features=256, out_features=256, bias=True)
      (1): ReLU()
      (2): Dropout(p=0, inplace=False)
      (3): Linear(in_features=256, out_features=256, bias=True)
      (4): ReLU()
    )
  )
  (mean_output_layer): Linear(in_features=256, out_features=3, bias=True)
  (var_output_layer): Linear(in_features=256, out_features=3, bias=True)
)

---------------------------------------------------------------------------

'[m004_(apv+G)]-(E=f_mlp1_og_D=gru)_edge_est_2.1' already exists in the log path 'C:\Aryan_Savant\Thesis_Projects\my_work\AFD_thesis\topology_estimation\logs\mass_sp_dm\M004\scene_1\nri\train\etypes=2\m004\apv\set_G\E=f_mlp1_og_D=gru\tswp_0\[m004_(apv+G)]-(E=f_mlp1_og_D=gru)_edge_est_2.1'.
…
