…
Decoder run parameters:
-------------------------
skip_first_edge_type: False
pred_steps: 10
is_burn_in: True
final_pred_steps: 10
is_dynamic_graph: False
temp: 1.0
is_hard: True
show_conf_band: False

Edge matrix is created from relation matrices and set to decoder.

Training parameters set to: 
lr=0.001, 
optimizer=adam, 
loss_type=mse

---------------------------------------------------------------------------

Decoder Model Initialized with the following configurations:

Decoder Model Summary:
Decoder(
  (edge_mlp_fn): ModuleList(
    (0): MLP(
      (layers): ModuleList(
        (0): Linear(in_features=512, out_features=256, bias=True)
        (1): Tanh()
        (2): Dropout(p=0, inplace=False)
        (3): Linear(in_features=256, out_features=256, bias=True)
        (4): Tanh()
      )
    )
  )
  (recurrent_emb_fn): GRU(
    (input_u): Linear(in_features=3, out_features=256, bias=True)
    (hidden_u): Linear(in_features=256, out_features=256, bias=True)
    (input_r): Linear(in_features=3, out_features=256, bias=True)
    (hidden_r): Linear(in_features=256, out_features=256, bias=True)
    (input_h): Linear(in_features=3, out_features=256, bias=True)
    (hidden_h): Linear(in_features=256, out_features=256, bias=True)
  )
  (mean_mlp): MLP(
    (layers): ModuleList(
      (0): Linear(in_features=256, out_features=256, bias=True)
      (1): ReLU()
      (2): Dropout(p=0, inplace=False)
      (3): Linear(in_features=256, out_features=256, bias=True)
      (4): ReLU()
    )
  )
  (var_mlp): MLP(
    (layers): ModuleList(
      (0): Linear(in_features=256, out_features=256, bias=True)
      (1): ReLU()
      (2): Dropout(p=0, inplace=False)
      (3): Linear(in_features=256, out_features=256, bias=True)
      (4): ReLU()
    )
  )
  (mean_output_layer): Linear(in_features=256, out_features=3, bias=True)
  (var_output_layer): Linear(in_features=256, out_features=3, bias=True)
)

---------------------------------------------------------------------------

'[m004_(apv+G)]-gru_dec_1.5' already exists in the log path 'C:\Aryan_Savant\Thesis_Projects\my_work\AFD_thesis\topology_estimation\logs\mass_sp_dm\M004\scene_1\decoder\train\etypes=1\m004\apv\set_G\D=gru\tswp_0\[m004_(apv+G)]-gru_dec_1.5'.
(a) Overwrite exsiting versio
…
