…
feat_configs: []
reduc_config: None
feat_norm: None
n_dims: 3

Decoder run parameters:
-------------------------
skip_first_edge_type: False
pred_steps: 1
is_burn_in: False
burn_in_steps: 1
is_dynamic_graph: False
temp: 1.0
is_hard: True
show_conf_band: False

Edge matrix is created from relation matrices and set to decoder.

---------------------------------------------------------------------------

Decoder Model Initialized with the following configurations:

Decoder Model Summary:
Decoder(
  (edge_mlp_fn): ModuleList(
    (0): MLP(
      (layers): ModuleList(
        (0): Linear(in_features=128, out_features=64, bias=True)
        (1): BatchNorm1d(64, eps=1e-05, momentum=0.1, affine=True, track_running_stats=True)
        (2): Tanh()
        (3): Dropout(p=0, inplace=False)
        (4): Linear(in_features=64, out_features=32, bias=True)
        (5): BatchNorm1d(32, eps=1e-05, momentum=0.1, affine=True, track_running_stats=True)
        (6): Tanh()
        (7): Dropout(p=0, inplace=False)
        (8): Linear(in_features=32, out_features=16, bias=True)
        (9): BatchNorm1d(16, eps=1e-05, momentum=0.1, affine=True, track_running_stats=True)
        (10): Tanh()
        (11): Dropout(p=0, inplace=False)
        (12): Linear(in_features=16, out_features=64, bias=True)
        (13): BatchNorm1d(64, eps=1e-05, momentum=0.1, affine=True, track_running_stats=True)
      )
    )
  )
  (mlp_emb_fn): Linear(in_features=64, out_features=64, bias=True)
  (mean_mlp): MLP(
    (layers): ModuleList(
      (0): Linear(in_features=64, out_features=64, bias=True)
      (1): BatchNorm1d(64, eps=1e-05, momentum=0.1, affine=True, track_running_stats=True)
      (2): Tanh()
      (3): Dropout(p=0, inplace=False)
      (4): Linear(in_features=64, out_features=32, bias=True)
      (5): BatchNorm1d(32, eps=1e-05, momentum=0.1, affine=True, track_running_stats=True)
      (6): Tanh()
      (7): Dropout(p=0, inplace=False)
      (8): Linear(in_features=32, out_features=16, bias=True)
      (9): BatchNorm1d(16, eps=1e-05, momentum=0.1, affine=True, track_running_stats=True)
      (10): Tanh()
      (11): Dropout(p=0, inplace=False)
      (12): Linear(in_features=16, out_features=64, bias=True)
      (13): BatchNorm1d(64, eps=1e-05, momentum=0.1, affine=True, track_running_stats=True)
    )
  )
  (var_mlp): MLP(
    (layers): ModuleList(
      (0): Linear(in_features=64, out_features=64, bias=True)
      (1): BatchNorm1d(64, eps=1e-05, momentum=0.1, affine=True, track_running_stats=True)
      (2): Tanh()
      (3): Dropout(p=0, inplace=False)
      (4): Linear(in_features=64, out_features=32, bias=True)
      (5): BatchNorm1d(32, eps=1e-05, momentum=0.1, affine=True, track_running_stats=True)
      (6): Tanh()
      (7): Dropout(p=0, inplace=False)
      (8): Linear(in_features=32, out_features=16, bias=True)
      (9): BatchNorm1d(16, eps=1e-05, momentum=0.1, affine=True, track_running_stats=True)
      (10): Tanh()
      (11): Dropout(p=0, inplace=False)
      (12): Linear(in_features=16, out_features=64, bias=True)
      (13): BatchNorm1d(64, eps=1e-05, momentum=0.1, affine=True, track_running_stats=True)
    )
  )
  (mean_output_layer): Linear(in_features=64, out_features=3, bias=True)
  (var_output_layer): Linear(in_features=64, out_features=3, bias=True)
)

---------------------------------------------------------------------------

'[m004_(apv+G)]-mlp_dec_1.1' already exists in the log path 'C:\Aryan_Savant\Thesis_Projects\my_work\AFD_thesis\topology_estimation\logs\mass_sp_dm\M004\scene_1\decoder\train\etypes=1\m004\apv\set_G\D=mlp\tswp_0\[m004_(apv+G)]-mlp_dec_1.1'.
(a) Overwrite exsiting version
…
