…
domain_config: {'type': 'time', 'cutoff_freq': 0}
raw_data_norm: None
feat_configs: []
feat_norm: None
reduc_config: None
n_dims: 3

Decoder run parameters:
-------------------------
temp: 1.0
is_hard: True
skip_first_edge_type: True
pred_steps: 1
is_burn_in: False
burn_in_steps: 1
is_dynamic_graph: False

---------------------------------------------------------------------------

NRI Model Initialized with the following configurations:
----- NRI Model Summary -----
-- Encoder Summary
Encoder(
  (emb_fn_dict): ModuleDict(
    (1/node_emd1): MLP(
      (layers): ModuleList(
        (0): Linear(in_features=300, out_features=64, bias=True)
        (1): BatchNorm1d(64, eps=1e-05, momentum=0.1, affine=True, track_running_stats=True)
        (2): ReLU()
        (3): Dropout(p=0.0, inplace=False)
        (4): Linear(in_features=64, out_features=32, bias=True)
        (5): BatchNorm1d(32, eps=1e-05, momentum=0.1, affine=True, track_running_stats=True)
        (6): ReLU()
        (7): Dropout(p=0.0, inplace=False)
        (8): Linear(in_features=32, out_features=16, bias=True)
        (9): BatchNorm1d(16, eps=1e-05, momentum=0.1, affine=True, track_running_stats=True)
        (10): ReLU()
        (11): Dropout(p=0.0, inplace=False)
        (12): Linear(in_features=16, out_features=8, bias=True)
        (13): BatchNorm1d(8, eps=1e-05, momentum=0.1, affine=True, track_running_stats=True)
      )
    )
    (1/node_emd2): MLP(
      (layers): ModuleList(
        (0): Linear(in_features=8, out_features=64, bias=True)
        (1): BatchNorm1d(64, eps=1e-05, momentum=0.1, affine=True, track_running_stats=True)
        (2): ReLU()
        (3): Dropout(p=0.0, inplace=False)
        (4): Linear(in_features=64, out_features=32, bias=True)
        (5): BatchNorm1d(32, eps=1e-05, momentum=0.1, affine=True, track_running_stats=True)
        (6): ReLU()
        (7): Dropout(p=0.0, inplace=False)
        (8): Linear(in_features=32, out_features=16, bias=True)
        (9): BatchNorm1d(16, eps=1e-05, momentum=0.1, affine=True, track_running_stats=True)
        (10): ReLU()
        (11): Dropout(p=0.0, inplace=False)
        (12): Linear(in_features=16, out_features=8, bias=True)
        (13): BatchNorm1d(8, eps=1e-05, momentum=0.1, affine=True, track_running_stats=True)
      )
    )
    (1/edge_emd1@): MLP(
      (layers): ModuleList(
        (0): Linear(in_features=8, out_features=64, bias=True)
        (1): BatchNorm1d(64, eps=1e-05, momentum=0.1, affine=True, track_running_stats=True)
        (2): ReLU()
        (3): Dropout(p=0.0, inplace=False)
        (4): Linear(in_features=64, out_features=32, bias=True)
        (5): BatchNorm1d(32, eps=1e-05, momentum=0.1, affine=True, track_running_stats=True)
        (6): ReLU()
        (7): Dropout(p=0.0, inplace=False)
        (8): Linear(in_features=32, out_features=16, bias=True)
        (9): BatchNorm1d(16, eps=1e-05, momentum=0.1, affine=True, track_running_stats=True)
        (10): ReLU()
        (11): Dropout(p=0.0, inplace=False)
        (12): Linear(in_features=16, out_features=8, bias=True)
        (13): BatchNorm1d(8, eps=1e-05, momentum=0.1, affine=True, track_running_stats=True)
      )
    )
    (2/node_emd1): MLP(
      (layers): ModuleList(
        (0): Linear(in_features=8, out_features=64, bias=True)
        (1): BatchNorm1d(64, eps=1e-05, momentum=0.1, affine=True, track_running_stats=True)
        (2): ReLU()
        (3): Dropout(p=0.0, inplace=False)
        (4): Linear(in_features=64, out_features=32, bias=True)
        (5): BatchNorm1d(32, eps=1e-05, momentum=0.1, affine=True, track_running_stats=True)
        (6): ReLU()
        (7): Dropout(p=0.0, inplace=False)
        (8): Linear(in_features=32, out_features=16, bias=True)
        (9): BatchNorm1d(16, eps=1e-05, momentum=0.1, affine=True, track_running_stats=True)
        (10): ReLU()
        (11): Dropout(p=0.0, inplace=False)
        (12): Linear(in_features=16, out_features=8, bias=True)
        (13): BatchNorm1d(8, eps=1e-05, momentum=0.1, affine=True, track_running_stats=True)
      )
    )
    (2/node_emd2): MLP(
      (layers): ModuleList(
        (0): Linear(in_features=8, out_features=64, bias=True)
        (1): BatchNorm1d(64, eps=1e-05, momentum=0.1, affine=True, track_running_stats=True)
        (2): ReLU()
        (3): Dropout(p=0.0, inplace=False)
        (4): Linear(in_features=64, out_features=32, bias=True)
        (5): BatchNorm1d(32, eps=1e-05, momentum=0.1, affine=True, track_running_stats=True)
        (6): ReLU()
        (7): Dropout(p=0.0, inplace=False)
        (8): Linear(in_features=32, out_features=16, bias=True)
        (9): BatchNorm1d(16, eps=1e-05, momentum=0.1, affine=True, track_running_stats=True)
        (10): ReLU()
        (11): Dropout(p=0.0, inplace=False)
        (12): Linear(in_features=16, out_features=8, bias=True)
        (13): BatchNorm1d(8, eps=1e-05, momentum=0.1, affine=True, track_running_stats=True)
      )
    )
    (2/edge_emd1): MLP(
      (layers): ModuleList(
        (0): Linear(in_features=16, out_features=64, bias=True)
        (1): BatchNorm1d(64, eps=1e-05, momentum=0.1, affine=True, track_running_stats=True)
        (2): ReLU()
        (3): Dropout(p=0.0, inplace=False)
        (4): Linear(in_features=64, out_features=32, bias=True)
        (5): BatchNorm1d(32, eps=1e-05, momentum=0.1, affine=True, track_running_stats=True)
        (6): ReLU()
        (7): Dropout(p=0.0, inplace=False)
        (8): Linear(in_features=32, out_features=16, bias=True)
        (9): BatchNorm1d(16, eps=1e-05, momentum=0.1, affine=True, track_running_stats=True)
        (10): ReLU()
        (11): Dropout(p=0.0, inplace=False)
        (12): Linear(in_features=16, out_features=8, bias=True)
        (13): BatchNorm1d(8, eps=1e-05, momentum=0.1, affine=True, track_running_stats=True)
      )
    )
    (2/edge_emd2): MLP(
      (layers): ModuleList(
        (0): Linear(in_features=16, out_features=64, bias=True)
        (1): BatchNorm1d(64, eps=1e-05, momentum=0.1, affine=True, track_running_stats=True)
        (2): ReLU()
        (3): Dropout(p=0.0, inplace=False)
        (4): Linear(in_features=64, out_features=32, bias=True)
        (5): BatchNorm1d(32, eps=1e-05, momentum=0.1, affine=True, track_running_stats=True)
        (6): ReLU()
        (7): Dropout(p=0.0, inplace=False)
        (8): Linear(in_features=32, out_features=16, bias=True)
        (9): BatchNorm1d(16, eps=1e-05, momentum=0.1, affine=True, track_running_stats=True)
        (10): ReLU()
        (11): Dropout(p=0.0, inplace=False)
        (12): Linear(in_features=16, out_features=8, bias=True)
        (13): BatchNorm1d(8, eps=1e-05, momentum=0.1, affine=True, track_running_stats=True)
      )
    )
  )
  (attention_layer_dict): ModuleDict()
  (output_layer): Linear(in_features=8, out_features=1, bias=True)
)
-- Decoder Summary
Decoder(
  (edge_mlp_fn): ModuleList(
    (0): MLP(
      (layers): ModuleList(
        (0): Linear(in_features=128, out_features=64, bias=True)
        (1): BatchNorm1d(64, eps=1e-05, momentum=0.1, affine=True, track_running_stats=True)
        (2): Tanh()
        (3): Dropout(p=0, inplace=False)
        (4): Linear(in_features=64, out_features=32, bias=True)
        (5): BatchNorm1d(32, eps=1e-05, momentum=0.1, affine=True, track_running_stats=True)
        (6): Tanh()
        (7): Dropout(p=0, inplace=False)
        (8): Linear(in_features=32, out_features=16, bias=True)
        (9): BatchNorm1d(16, eps=1e-05, momentum=0.1, affine=True, track_running_stats=True)
        (10): Tanh()
        (11): Dropout(p=0, inplace=False)
        (12): Linear(in_features=16, out_features=64, bias=True)
        (13): BatchNorm1d(64, eps=1e-05, momentum=0.1, affine=True, track_running_stats=True)
      )
    )
  )
  (recurrent_emb_fn): GRU(
    (input_u): Linear(in_features=3, out_features=64, bias=True)
    (hidden_u): Linear(in_features=64, out_features=64, bias=True)
    (input_r): Linear(in_features=3, out_features=64, bias=True)
    (hidden_r): Linear(in_features=64, out_features=64, bias=True)
    (input_h): Linear(in_features=3, out_features=64, bias=True)
    (hidden_h): Linear(in_features=64, out_features=64, bias=True)
  )
  (mean_mlp): MLP(
    (layers): ModuleList(
      (0): Linear(in_features=64, out_features=64, bias=True)
      (1): BatchNorm1d(64, eps=1e-05, momentum=0.1, affine=True, track_running_stats=True)
      (2): Tanh()
      (3): Dropout(p=0, inplace=False)
      (4): Linear(in_features=64, out_features=32, bias=True)
      (5): BatchNorm1d(32, eps=1e-05, momentum=0.1, affine=True, track_running_stats=True)
      (6): Tanh()
      (7): Dropout(p=0, inplace=False)
      (8): Linear(in_features=32, out_features=16, bias=True)
      (9): BatchNorm1d(16, eps=1e-05, momentum=0.1, affine=True, track_running_stats=True)
      (10): Tanh()
      (11): Dropout(p=0, inplace=False)
      (12): Linear(in_features=16, out_features=64, bias=True)
      (13): BatchNorm1d(64, eps=1e-05, momentum=0.1, affine=True, track_running_stats=True)
    )
  )
  (var_mlp): MLP(
    (layers): ModuleList(
      (0): Linear(in_features=64, out_features=64, bias=True)
      (1): BatchNorm1d(64, eps=1e-05, momentum=0.1, affine=True, track_running_stats=True)
      (2): Tanh()
      (3): Dropout(p=0, inplace=False)
      (4): Linear(in_features=64, out_features=32, bias=True)
      (5): BatchNorm1d(32, eps=1e-05, momentum=0.1, affine=True, track_running_stats=True)
      (6): Tanh()
      (7): Dropout(p=0, inplace=False)
      (8): Linear(in_features=32, out_features=16, bias=True)
      (9): BatchNorm1d(16, eps=1e-05, momentum=0.1, affine=True, track_running_stats=True)
      (10): Tanh()
      (11): Dropout(p=0, inplace=False)
      (12): Linear(in_features=16, out_features=64, bias=True)
      (13): BatchNorm1d(64, eps=1e-05, momentum=0.1, affine=True, track_running_stats=True)
    )
  )
  (mean_output_layer): Linear(in_features=64, out_features=3, bias=True)
  (var_output_layer): Linear(in_features=64, out_features=3, bias=True)
)

---------------------------------------------------------------------------

'(m004)-(E=mlp_1_D=gru)_edge_est_1.1' already exists in the log path 'C:\Aryan_Savant\Thesis_Projects\my_work\AFD_thesis\topology_estimation\logs\mass_sp_dm\M004\scene_1\nri\train\etypes=1\grp=m004\E=mlp_1_D=gru\(m004)-(E=mlp_1_D=gru)_edge_est_1.1'.
(a) Overwrite exsitin
…
