…
loss_type_encoder=kld, 
loss_type_decoder=mse, 
prior=tensor([0.5000, 0.5000]), 
add_const_kld=True
is_enc_warmup: True, 
warmup_acc_cutoff: 0.8, 
sustain_enc_warmup: True, 
final_gamma: 0.3, 
warmup_frac_gamma: 0.6, 
dec_loss_stabilize_steps: 80, 
dec_loss_bound_update_interval: 5, 
dec_loss_window_size: 200


---------------------------------------------------------------------------

NRI Model Initialized with the following configurations:
----- NRI Model Summary -----
-- Encoder Summary
Encoder(
  (emb_fn_dict): ModuleDict(
    (1/node_emd1): MLP(
      (layers): ModuleList(
        (0): Linear(in_features=300, out_features=256, bias=True)
        (1): BatchNorm1d(256, eps=1e-05, momentum=0.1, affine=True, track_running_stats=True)
        (2): ELU(alpha=1.0)
        (3): Dropout(p=0.0, inplace=False)
        (4): Linear(in_features=256, out_features=256, bias=True)
        (5): BatchNorm1d(256, eps=1e-05, momentum=0.1, affine=True, track_running_stats=True)
        (6): ELU(alpha=1.0)
      )
    )
    (1/edge_emd1@): MLP(
      (layers): ModuleList(
        (0): Linear(in_features=512, out_features=256, bias=True)
        (1): BatchNorm1d(256, eps=1e-05, momentum=0.1, affine=True, track_running_stats=True)
        (2): ELU(alpha=1.0)
        (3): Dropout(p=0.0, inplace=False)
        (4): Linear(in_features=256, out_features=256, bias=True)
        (5): BatchNorm1d(256, eps=1e-05, momentum=0.1, affine=True, track_running_stats=True)
        (6): ELU(alpha=1.0)
      )
    )
    (2/node_emd1): MLP(
      (layers): ModuleList(
        (0): Linear(in_features=256, out_features=256, bias=True)
        (1): BatchNorm1d(256, eps=1e-05, momentum=0.1, affine=True, track_running_stats=True)
        (2): ELU(alpha=1.0)
        (3): Dropout(p=0.0, inplace=False)
        (4): Linear(in_features=256, out_features=256, bias=True)
        (5): BatchNorm1d(256, eps=1e-05, momentum=0.1, affine=True, track_running_stats=True)
        (6): ELU(alpha=1.0)
      )
    )
    (2/edge_emd1): MLP(
      (layers): ModuleList(
        (0): Linear(in_features=512, out_features=256, bias=True)
        (1): BatchNorm1d(256, eps=1e-05, momentum=0.1, affine=True, track_running_stats=True)
        (2): ELU(alpha=1.0)
        (3): Dropout(p=0.0, inplace=False)
        (4): Linear(in_features=256, out_features=256, bias=True)
        (5): BatchNorm1d(256, eps=1e-05, momentum=0.1, affine=True, track_running_stats=True)
        (6): ELU(alpha=1.0)
      )
    )
  )
  (attention_layer_dict): ModuleDict()
  (output_layer): Linear(in_features=256, out_features=2, bias=True)
)
-- Decoder Summary
Decoder(
  (edge_mlp_fn): ModuleList(
    (0-1): 2 x MLP(
      (layers): ModuleList(
        (0): Linear(in_features=128, out_features=64, bias=True)
        (1): Tanh()
        (2): Dropout(p=0, inplace=False)
        (3): Linear(in_features=64, out_features=64, bias=True)
        (4): Tanh()
      )
    )
  )
  (recurrent_emb_fn): GRU(
    (input_u): Linear(in_features=3, out_features=64, bias=True)
    (hidden_u): Linear(in_features=64, out_features=64, bias=True)
    (input_r): Linear(in_features=3, out_features=64, bias=True)
    (hidden_r): Linear(in_features=64, out_features=64, bias=True)
    (input_h): Linear(in_features=3, out_features=64, bias=True)
    (hidden_h): Linear(in_features=64, out_features=64, bias=True)
  )
  (mean_mlp): MLP(
    (layers): ModuleList(
      (0): Linear(in_features=64, out_features=64, bias=True)
      (1): ReLU()
      (2): Dropout(p=0, inplace=False)
      (3): Linear(in_features=64, out_features=64, bias=True)
      (4): ReLU()
    )
  )
  (var_mlp): MLP(
    (layers): ModuleList(
      (0): Linear(in_features=64, out_features=64, bias=True)
      (1): ReLU()
      (2): Dropout(p=0, inplace=False)
      (3): Linear(in_features=64, out_features=64, bias=True)
      (4): ReLU()
    )
  )
  (mean_output_layer): Linear(in_features=64, out_features=3, bias=True)
  (var_output_layer): Linear(in_features=64, out_features=3, bias=True)
)

---------------------------------------------------------------------------
C:\Anaconda3\envs\afd_env\Lib\site-packages\pytorch_lightning\trainer\connectors\data_connector.py:425: The 'train_dataloader' does not have many workers which may be a bottleneck. Consider increasing the value of the `num_workers` argument` to `num_workers=19` in the `DataLoader` to improve performance.
…
